# YOLOv5 ðŸš€ by Ultralytics, AGPL-3.0 license

# Parameters
nc: 1  # number of classes
depth_multiple: 0.33  # model depth multiple
width_multiple: 0.50 # layer channel multiple

anchors:
  - [10,13, 16,30, 33,23]  # P3/8
  - [30,61, 62,45, 59,119]  # P4/16
  - [116,90, 156,198, 373,326]  # P5/32

# FasterNet Backbone with Multiple CBAM
backbone:
  # [from, number, module, args]
  [[-1, 1, PatchEmbed_FasterNet, [40, 4, 4]],  # 0-P1/4
   [-1, 1, BasicStage, [40, 1]],                # 1
   [-1, 1, PatchMerging_FasterNet, [80, 2, 2]],  # 2-P2/8
   [-1, 2, BasicStage, [80, 1]],                # 3 <- P3 output (80 channels)
   [-1, 1, PatchMerging_FasterNet, [160, 2, 2]], # 4
   [-1, 8, BasicStage, [160, 1]],               # 5 <- P4 output (160 channels)
   # --- ç¬¬ä¸€ä¸ª CBAM æ’å…¥ç‚¹ (P4 ä¹‹åŽ) ---
   [-1, 1, CBAM, [160]],                        # 6 (Takes 160 channels from layer 5)
   # --- CBAM ç»“æŸ ---
   [-1, 1, PatchMerging_FasterNet, [320, 2, 2]], # 7 (Input from layer 6)
   [-1, 2, BasicStage, [320, 1]],               # 8 (Output: 320 channels)
   # --- ç¬¬äºŒä¸ª CBAM æ’å…¥ç‚¹ (SPPF ä¹‹å‰) ---
   [-1, 1, CBAM, [320]],                        # 9 (Takes 320 channels from layer 8)
   # --- CBAM ç»“æŸ ---
   [-1, 1, SPPF, [320, 5]],                     # 10 <- P5 output (320 channels, Input from layer 9)
  ]

# Head structure adapted for FasterNet outputs (Indices need adjustment)
head:
  [[-1, 1, Conv, [512, 1, 1]],                 # 11 (Input from layer 10 - SPPF)
   [-1, 1, nn.Upsample, [None, 2, 'nearest']],  # 12
   # æ³¨æ„ï¼šçŽ°åœ¨ P4 è¾“å‡ºåŽåŠ äº† CBAMï¼Œæ‰€ä»¥è¦ä»Žå±‚ 6 è¿žæŽ¥
   [[-1, 6], 1, Concat, [1]],                   # 13 <- Concat backbone P4 (layer 6)
   [-1, 3, C3, [512, False]],                   # 14
   [-1, 1, Conv, [256, 1, 1]],                 # 15
   [-1, 1, nn.Upsample, [None, 2, 'nearest']],  # 16
   # P3 è¾“å‡ºå±‚ç´¢å¼•ä¸å˜
   [[-1, 3], 1, Concat, [1]],                   # 17 <- Concat backbone P3 (layer 3)
   [-1, 3, C3, [256, False]],                   # 18 (P3/8-small output)
   [-1, 1, Conv, [256, 3, 2]],                 # 19
   # è¿žæŽ¥ Head P4 (æ¥è‡ªå±‚ 15)
   [[-1, 15], 1, Concat, [1]],                  # 20 <- Concat head P4 (from layer 15)
   [-1, 3, C3, [512, False]],                   # 21 (P4/16-medium output)
   [-1, 1, Conv, [512, 3, 2]],                 # 22
   # è¿žæŽ¥ Head P5 (æ¥è‡ªå±‚ 11)
   [[-1, 11], 1, Concat, [1]],                  # 23 <- Concat head P5 (from layer 11)
   [-1, 3, C3, [1024, False]],                  # 24 (P5/32-large output)

   # Detect è¾“å…¥å±‚ç´¢å¼•æ›´æ–°
   [[18, 21, 24], 1, Detect, [nc, anchors]],   # Detect(P3, P4, P5) - Inputs from layers 18, 21, 24
]