# YOLOv5 ðŸš€ by Ultralytics, AGPL-3.0 license

# Parameters
nc: 1  # number of classes
depth_multiple: 0.33  # model depth multiple
width_multiple: 0.50 # layer channel multiple

anchors:
  - [10,13, 16,30, 33,23]  # P3/8
  - [30,61, 62,45, 59,119]  # P4/16
  - [116,90, 156,198, 373,326]  # P5/32

# FasterNet Backbone with Multiple CBAM
backbone:
  # [from, number, module, args]
  [[-1, 1, PatchEmbed_FasterNet, [40, 4, 4]],  # 0-P1/4
   [-1, 1, BasicStage, [40, 1]],                # 1
   [-1, 1, PatchMerging_FasterNet, [80, 2, 2]],  # 2-P2/8
   [-1, 2, BasicStage, [80, 1]],                # 3 <- P3 output (80 channels)
   [-1, 1, PatchMerging_FasterNet, [160, 2, 2]], # 4
   [-1, 8, BasicStage, [160, 1]],               # 5 <- P4 output (160 channels)
   # --- ç¬¬ä¸€ä¸ª CBAM æ’å…¥ç‚¹ (P4 ä¹‹åŽ) ---
   [-1, 1, CBAM, [160]],                        # 6 (Takes 160 channels from layer 5)
   # --- CBAM ç»“æŸ ---
   [-1, 1, PatchMerging_FasterNet, [320, 2, 2]], # 7 (Input from layer 6)
   [-1, 2, BasicStage, [320, 1]],               # 8 (Output: 320 channels)
   # --- ç¬¬äºŒä¸ª CBAM æ’å…¥ç‚¹ (SPPF ä¹‹å‰) ---
   [-1, 1, CBAM, [320]],                        # 9 (Takes 320 channels from layer 8)
   # --- CBAM ç»“æŸ ---
   [-1, 1, SPPF, [320, 5]],                     # 10 <- P5 output (320 channels, Input from layer 9)
  ]

# Head structure adapted for FasterNet outputs (Indices need adjustment)
# ... ä¿æŒ backbone éƒ¨åˆ†ä¸å˜ ...

# Head éƒ¨åˆ†ä¿®æ­£
head:
  [[-1, 1, Conv, [512, 1, 1]],                 # 11 (è¾“å…¥å±‚10)
   [-1, 1, nn.Upsample, [None, 2, 'nearest']],  # 12
   [[-1, 6], 1, Concat, [1]],                   # 13 (è¿žæŽ¥å±‚6)
   [-1, 3, C3, [512, False]],                   # 14
   [-1, 1, CBAM, [512]],                        # 15 (æ–°å¢ž1)
   [-1, 1, Conv, [256, 1, 1]],                 # 16
   [-1, 1, nn.Upsample, [None, 2, 'nearest']],  # 17
   [[-1, 3], 1, Concat, [1]],                   # 18 (è¿žæŽ¥å±‚3)
   [-1, 3, C3, [256, False]],                   # 19
   [-1, 1, CBAM, [256]],                        # 20 (æ–°å¢ž2)
   [-1, 1, Conv, [256, 3, 2]],                 # 21
   [[-1, 16], 1, Concat, [1]],                  # 22 (è¿žæŽ¥å±‚16)
   [-1, 3, C3, [512, False]],                   # 23
   [-1, 1, Conv, [512, 3, 2]],                 # 24
   [[-1, 11], 1, Concat, [1]],                  # 25 (è¿žæŽ¥å±‚11)
   [-1, 3, C3, [1024, False]],                  # 26
   [[19, 23, 26], 1, Detect, [nc, anchors]],    # è¾“å…¥å±‚æ›´æ–°
]