# YOLOv5 ðŸš€ by Ultralytics, AGPL-3.0 license

# Parameters
nc: 1  # number of classes
depth_multiple: 0.33  # model depth multiple
width_multiple: 0.50 # layer channel multiple

anchors:
  - [10,13, 16,30, 33,23]  # P3/8
  - [30,61, 62,45, 59,119]  # P4/16
  - [116,90, 156,198, 373,326]  # P5/32

# FasterNet Backbone with Multiple CBAM (5 CBAM modules in total)
backbone:
  # [from, number, module, args]
  [[-1, 1, PatchEmbed_FasterNet, [40, 4, 4]],  # 0-P1/4
   [-1, 1, BasicStage, [40, 1]],                # 1
   [-1, 1, PatchMerging_FasterNet, [80, 2, 2]],  # 2-P2/8
   [-1, 2, BasicStage, [80, 1]],                # 3 <- P3 output (80 channels)
   # --- æ–°å¢ž CBAM æ’å…¥ç‚¹ (P3 ä¹‹åŽ) ---
   [-1, 1, CBAM, [80]],                         # 4 (Takes 80 channels from layer 3)
   # --- CBAM ç»“æŸ ---
   [-1, 1, PatchMerging_FasterNet, [160, 2, 2]], # 5 (Input from layer 4)
   [-1, 8, BasicStage, [160, 1]],               # 6 <- P4 output (160 channels)
   # --- ç¬¬äºŒä¸ª CBAM æ’å…¥ç‚¹ (P4 ä¹‹åŽ) ---
   [-1, 1, CBAM, [160]],                        # 7 (Takes 160 channels from layer 6)
   # --- CBAM ç»“æŸ ---
   [-1, 1, PatchMerging_FasterNet, [320, 2, 2]], # 8 (Input from layer 7)
   [-1, 2, BasicStage, [320, 1]],               # 9 (Output: 320 channels)
   # --- ç¬¬ä¸‰ä¸ª CBAM æ’å…¥ç‚¹ (SPPF ä¹‹å‰) ---
   [-1, 1, CBAM, [320]],                        # 10 (Takes 320 channels from layer 9)
   # --- CBAM ç»“æŸ ---
   [-1, 1, SPPF, [320, 5]],                     # 11 <- P5 output (320 channels, Input from layer 10)
  ]

# Head éƒ¨åˆ†ä¿®æ­£ (ç´¢å¼•éœ€è¦æ›´æ–°ä»¥é€‚åº”æ–°çš„backboneç»“æž„)
head:
  [[-1, 1, Conv, [512, 1, 1]],                 # 12 (è¾“å…¥å±‚11)
   [-1, 1, nn.Upsample, [None, 2, 'nearest']],  # 13
   [[-1, 7], 1, Concat, [1]],                   # 14 (è¿žæŽ¥å±‚7 - P4åŽçš„CBAM)
   [-1, 3, C3, [512, False]],                   # 15
   [-1, 1, CBAM, [512]],                        # 16 (æ–°å¢ž1)
   [-1, 1, Conv, [256, 1, 1]],                 # 17
   [-1, 1, nn.Upsample, [None, 2, 'nearest']],  # 18
   [[-1, 4], 1, Concat, [1]],                   # 19 (è¿žæŽ¥å±‚4 - P3åŽçš„CBAM)
   [-1, 3, C3, [256, False]],                   # 20
   [-1, 1, CBAM, [256]],                        # 21 (æ–°å¢ž2)
   [-1, 1, Conv, [256, 3, 2]],                 # 22
   [[-1, 17], 1, Concat, [1]],                  # 23 (è¿žæŽ¥å±‚17)
   [-1, 3, C3, [512, False]],                   # 24
   [-1, 1, Conv, [512, 3, 2]],                 # 25
   [[-1, 12], 1, Concat, [1]],                  # 26 (è¿žæŽ¥å±‚12)
   [-1, 3, C3, [1024, False]],                  # 27
   [[20, 24, 27], 1, Detect, [nc, anchors]],    # è¾“å…¥å±‚æ›´æ–°
]